models/emotion_model.pth (torch, 23381 bytes, 2 tensors)

W f4 [768, 7]
000000 58 ec 19 3e e6 90 74 3f 1f ce 56 bf 62 2a 0b bf
       0.15031564 0.955336 -0.83908266 -0.54361546
000010 ec a7 08 3e f5 ef e4 3f 7f bb 81 be 89 70 31 bf
       0.13345307 1.7885729 -0.2533836 -0.6931234
000020 e2 3f 5f be a6 c9 cc 3f b8 d4 3f c0 be e4 00 bf
       -0.21801713 1.5999038 -2.9973583 -0.5034903
000030 fc 7e af 3f 59 4c 8e bf 0c 41 ac 3f ec 5e ec be
       1.3710628 -1.111705 1.3457351 -0.4616617
000040 f9 97 c0 bf 9a 4d eb be 21 1b 52 be 2f c1 63 3f
       -1.5046378 -0.45957643 -0.20518161 0.8896665
000050 9b cb 1d 40 0a 38 0e c0 16 8e c5 3f d1 9c e2 bf
       2.465552 -2.2221704 1.5433986 -1.7704107
000060 70 ce e8 be 2c 8a 3e c0 89 b3 4e 40 5d e4 54 3f
       -0.4547 -2.9771833 3.229708 0.83160955
000070 ff 0a 0f c0 ec c1 93 3f f2 91 80 bf 2b 43 33 3f
       -2.2350461 1.1543555 -1.0044539 0.70024365
000080 bf ff 1c 40 c1 25 5a 3f ee 8e 2c c0 09 30 1c 40
       2.4531095 0.8521386 -2.6962237 2.4404318
000090 d2 82 10 bf d4 c4 f2 3f 77 4d e0 3f 33 58 09 c0
       -0.56449616 1.8966317 1.752364 -2.1460083
0000a0 20 2a ed 3f aa ad 16 c0 9e c5 87 3f d4 35 02 3f
       1.852848 -2.3543496 1.0607183 0.50863385
0000b0 48 ed 5c 3f 48 43 9e be 5c 8d c9 bf ea 9d 57 c0
       0.8629956 -0.30910707 -1.5746264 -3.3690133
0000c0 bc d4 4c 40 ea b1 3e 40 ed 3d 52 c0 5a e4 dc be
       3.2004843 2.979609 -3.2850296 -0.43142968
0000d0 47 b5 5c bf 37 e1 9f be fd 41 d3 bf 67 96 c1 bf
       -0.8621411 -0.31226513 -1.6504513 -1.5124024
0000e0 cf 74 ba 3f c1 87 5b c0 4c 61 91 3f 68 89 8b 3e
       1.4566897 -3.4301608 1.1357818 0.2725327
0000f0 9e 39 3d be cf 2f 5f 3e 1c c1 3d 3f f4 6b 8a bf
       -0.1847901 0.21795581 0.74122787 -1.0814195
000100 af a2 0b 40 0d 60 02 3f ae 0a 8f 3f 9b 9a 50 3f
       2.1818044 0.5092781 1.1175134 0.8148591
000110 d4 f2 d6 bf 76 91 d3 bf 25 9b 01 bf ee d6 35 bf
       -1.6792855 -1.6528766 -0.50627357 -0.7103108
000120 28 52 3f bf 3f 28 e5 3f 35 27 0c 40 52 f2 5a bf
       -0.74734735 1.7902907 2.189893 -0.85526
000130 1a 31 2c bf ed 9e b2 3f 26 8b 4b bf 2a a5 df 3e
       -0.67262423 1.395475 -0.795092 0.43680698
000140 67 2e db bf 8f a8 94 3f a9 72 a3 bf 4e b3 21 3e
       -1.7123536 1.161394 -1.2769367 0.15791056
000150 50 85 4c be 0b 05 e1 be 9b a7 90 3f e7 d5 18 3f
       -0.1997273 -0.4394916 1.1301149 0.5970139
000160 40 82 4f bf 08 17 cd be cc b2 3f 40 84 78 8d bf
       -0.8105812 -0.40056634 2.995288 -1.1052403
000170 d2 da 07 c0 5d cc 2b c0 a0 e2 96 3e 51 80 dd bd
       -2.1227307 -2.6843483 0.29469776 -0.1081549
000180 c0 8d df 3f 4a dd ce 3f 7a 57 75 40 51 e6 b1 bf
       1.7465134 1.6161282 3.8334641 -1.3898412
000190 91 43 16 3f 0e 49 14 3f c0 25 46 c0 00 a6 ff be
       0.5869685 0.5792397 -3.096054 -0.49931335
0001a0 b5 f8 41 3f 2d 9d 2a 40 dc 99 ab be 07 47 39 c0
       0.7577012 2.6658432 -0.33515823 -2.8949602
0001b0 88 57 1c 3f 52 f3 46 40 01 15 f0 bf fa 44 b0 be
       0.6107106 3.108601 -1.875641 -0.34427625
0001c0 e0 f4 9f 3f 72 d4 cc 3f 1a 85 4c bf 7d e2 d2 3e
       1.2496605 1.6002333 -0.79890597 0.41188422
0001d0 63 15 38 40 85 d6 14 c0 d1 00 ef be f4 74 51 bf
       2.8763053 -2.3255932 -0.4668031 -0.8181908
0001e0 0d 74 57 3e 8e ae f5 be 07 cb ae 3e 8a 18 ca 3d
       0.21040364 -0.47984737 0.34139273 0.09867962
0001f0 14 c1 0e 3f 86 b0 1a bf bb 67 5c c0 8b 9d 0e bf
       0.55763364 -0.60425603 -3.4438312 -0.5570914
000200 fe 10 b9 bd da ba 0e 3e a6 6d f7 3f 9c be 27 40
       -0.09036444 0.13938466 1.9330337 2.6210089
000210 8c 55 c8 3d 59 65 4e bf b8 3d 22 c0 83 16 b3 bd
       0.09781942 -0.80623394 -2.535017 -0.08744528
000220 6e 62 cb 3f 78 82 9b 3f 95 2e 08 c0 64 c4 87 40
       1.5889413 1.2149191 -2.1278431 4.2427235
000230 06 1c 8e be 12 79 d1 3f c6 52 ac 3e cd 87 07 3f
       -0.27755755 1.6365073 0.336569 0.5294159
000240 44 49 cb 3d 53 87 31 c0 fc dc bf 3f 81 2d 88 be
       0.09926084 -2.7738845 1.4989314 -0.26597217
000250 8b 68 0b c0 3e ee fd be be a2 87 3f b3 32 b4 bf
       -2.1782558 -0.49595827 1.059654 -1.4077972
000260 bc f9 7e 3f e5 87 ef 3f 03 0b d8 3f 61 bd 39 c0
       0.99599814 1.8713347 1.687836 -2.9021838
000270 70 2e ae 3f 95 20 c8 be 72 ae a7 3f 1f 99 dd be
       1.3607922 -0.39087358 1.3100111 -0.43280885
000280 6d e8 4b 40 b7 ec 84 be fd 30 5c 40 7e 56 c7 be
       3.1860611 -0.2596185 3.44049 -0.38933176
000290 3b fb ff 3f 38 e1 06 c0 80 c6 d3 bf 81 28 d9 be
       1.9998544 -2.1074963 -1.6544952 -0.42413715
0002a0 23 0d 94 bd 6e 5a fa 3f 8d 04 44 bf 5d e7 f3 be
       -0.07229068 1.9558847 -0.76569444 -0.47637454
0002b0 e5 15 8a 3f 16 9b 7a bd c8 eb fa be 06 94 ac 3e
       1.0787932 -0.061183058 -0.49008012 0.33706683
0002c0 22 96 a4 3f d6 a2 03 3f 9f 6f 74 3f 57 1c 35 3f
       1.2858317 0.5142034 0.9548282 0.7074637
0002d0 06 72 22 c0 d4 b8 f1 bf a8 18 6f 3b d9 25 1d 40
       -2.5382094 -1.888453 0.0036483202 2.455435
0002e0 42 8e 48 3e 38 98 a8 bf 74 37 19 3f db df ab 3f
       0.19585517 -1.3171453 0.5985024 1.342769
0002f0 8c 13 e3 be 3a 97 bc be fb 9a 95 3f be 23 90 3f
       -0.4435085 -0.36834127 1.1687921 1.1260908
000300 c4 a7 1c c0 a6 84 2d 3f 13 d5 8a 3f 0f 57 22 c0
       -2.4477396 0.6778053 1.0846275 -2.5365636
000310 61 16 6b 3f 14 77 b1 3e 64 60 53 bf 34 9b 0b 3f
       0.9183102 0.34661162 -0.82568955 0.54533696
000320 0a 3a 3e be e2 d3 65 bf dc b7 1f bf 5c 96 3c 3f
       -0.18576828 -0.8977643 -0.6238992 0.7366693
000330 c0 fd 7e c0 31 94 c4 be c8 a3 3d bc 7e 6c 52 bf
       -3.9842377 -0.3839431 -0.011574693 -0.82196796
000340 4e a3 23 3f bc 8a 0c 3f c3 05 c8 3e ae da ed 3f
       0.6392106 0.5489919 0.39066896 1.8582361
000350 0e c6 d5 3f 99 86 73 c0 80 bd 1b c0 07 7a 95 bf
       1.6701066 -3.8050902 -2.4334412 -1.1677865
000360 30 46 49 40 da 83 bf 3f 70 fb 32 40 03 bf 11 c0
       3.144909 1.4962113 2.7965965 -2.2772834
000370 a7 0d 14 3f bf cd 25 3f b4 f2 47 3e c6 52 98 3f
       0.5783333 0.6476707 0.19526178 1.190026
000380 79 e8 2d 3f 92 e0 a8 be 7e c3 14 c0 33 42 29 3f
       0.6793285 -0.32983834 -2.324432 0.66116637
000390 4a a7 e3 bf bd e8 ac 3f b3 a3 73 3f ca 02 28 40
       -1.7785428 1.3508526 0.9517166 2.6251702
0003a0 a0 8c 3f c0 22 69 01 3f 96 ab fc 3f 3a 6e 76 bf
       -2.992958 0.50551045 1.9739864 -0.9626194
0003b0 5b 82 6e bf 2c 1f 89 3f 11 67 04 40 05 91 41 c0
       -0.93167657 1.0712638 2.0687907 -3.0244763
0003c0 d6 28 da bf 34 27 6f 3f 24 4d 1b 40 6b a5 0c bf
       -1.7043712 0.93419194 2.4265833 -0.5493991
0003d0 78 7d a5 bf e3 e2 aa 3f 08 5b 16 bd a7 f2 ee 3f
       -1.2928915 1.335049 -0.036707908 1.8667802
0003e0 a0 dd 94 bf 11 e4 08 c0 11 d0 92 3f 04 77 10 c0
       -1.1630135 -2.13892 1.1469747 -2.2572641
0003f0 54 4b 16 3f a8 3a 49 3e 1a 50 44 bf 93 d5 9b 3f
       0.5870869 0.19651282 -0.76684725 1.2174553

b f4 [7]
000000 18 57 e2 3f a2 58 ae 3e 7f 7d b5 bf da e7 14 c0
       1.7682829 0.34051996 -1.4178923 -2.326651
000010 08 27 e4 3f e6 1e e0 3f 8a e6 f2 bf
       1.7824411 1.750943 -1.8976605
