models/emotion_model_iter5.pth (torch, 23429 bytes, 2 tensors)

W f4 [768, 7]
0	0x4087e70f	4.2469554
1	0xc19ff008	-19.992203
2	0x4097365d	4.725386
3	0x403b2cb2	2.924603
4	0x40a0bc2a	5.0229692
5	0x409f4623	4.9773116
6	0xbf47258a	-0.77791655
7	0xbf6cd1f0	-0.9250784
8	0x4102c599	8.173242
9	0xbfa93d43	-1.322182
10	0xbf2d8635	-0.6778291
11	0xbfd16e35	-1.6361758
12	0x3f53ef62	0.82787144
13	0xc073d69a	-3.8099732
14	0xbfaa1845	-1.3288656
15	0x4127eb69	10.494973
16	0xbffd7dfc	-1.9804072
17	0xbf89409b	-1.0722841
18	0xc01fdc8f	-2.4978368
19	0xc025c9db	-2.5904453
20	0xbdf1fd42	-0.11815883
21	0xbf93cd71	-1.1547071
22	0x40fa7d1f	7.8277736
23	0xc010d287	-2.2628496
24	0x3e755c38	0.2396096
25	0xc02783eb	-2.6174266
26	0xbfda54f8	-1.705718
27	0xc01bce20	-2.4344559
28	0x3f2bbef2	0.67088234
29	0xbfea4fac	-1.8305564
30	0xbde00980	-0.10939312
31	0x401ef11b	2.483466
32	0x3f44b98f	0.7684564
33	0xbcb2505a	-0.02176683
34	0xbeee1084	-0.46496975
35	0xbfe36f6a	-1.7768376
36	0x4083232b	4.098043
37	0xbfa58339	-1.2930671
38	0xbf97d706	-1.1862495
39	0xbfd07e83	-1.6288608
40	0x3f3937ca	0.7235075
41	0xc0269adf	-2.6032026
42	0xbf10b2f7	-0.5652308
43	0x3f1b182a	0.60583746
44	0xbe5a3d1f	-0.21312378
45	0x3ffc620e	1.9717424
46	0xbf898578	-1.0743856
47	0x3f81896f	1.0120066
48	0x3f0aa7f1	0.5416251
49	0x409d4db4	4.9157352
50	0xc18ed21e	-17.852596
51	0x407a5510	3.9114418
52	0x40750051	3.8281443
53	0x409d4749	4.914952
54	0x403effa7	2.9843538
55	0xc0065d30	-2.0994377
56	0x40a544f2	5.164666
57	0xc212bc5c	-36.683945
58	0x40c14483	6.0396132
59	0x410286e6	8.157934
60	0x40e228db	7.0674872
61	0x40a6233f	5.1918025
62	0x404d5d22	3.2088094
63	0x4010c616	2.2620902
64	0xc0a7c299	-5.2425046
65	0x3fa3ffe2	1.2812464
66	0x3fe8c642	1.8185503
67	0x3fcc76ed	1.5973793
68	0xbf69afb7	-0.91283745
69	0xbfb296f0	-1.3952312
70	0x3f76fc44	0.96478677
71	0xc0c1da3a	-6.057889
72	0x3eafe629	0.34355286
73	0x3cdc41df	0.026886879
74	0x3ee50d1f	0.44736573
75	0xbf0cb6bf	-0.5496635
76	0x3f1a0da7	0.6017708
77	0x3f914c45	1.1351401
78	0xbf1cd21c	-0.612581
79	0x3f521b57	0.8207297
80	0xbf73af92	-0.95189774
81	0xbe913639	-0.2836168
82	0x3f883f21	1.0644265
83	0x3faed6a7	1.3659257
84	0x3fd98ce4	1.6996121
85	0xc0fd81d2	-7.922097
86	0x3fb1ddfc	1.3895869
87	0x4071bae9	3.777033
88	0x3f9a270d	1.2043167
89	0x4028c855	2.6372273
90	0xc044c3c5	-3.0744488
91	0x3d4898f5	0.048973996
92	0x40e781da	7.234601
93	0xbf244aa6	-0.64176404
94	0xbdaf58ba	-0.08561845
95	0xc02bf223	-2.6866539
96	0xc0436e43	-3.0536048
97	0x3f28b74d	0.65904695
98	0xc01a8cb1	-2.4148371
99	0x40d00564	6.500658
100	0xc0055a70	-2.0836449
101	0xbfee194d	-1.8601471
102	0xc05d3517	-3.4563653
103	0xc05fa926	-3.494699
104	0x3ff49d66	1.9110534
105	0xbfdbb275	-1.7163836
106	0x413a44dc	11.641811
107	0xc06e5e18	-3.724493
108	0xbfd67e3e	-1.6757276
109	0xc0181ccd	-2.3767579
110	0xc02d8ecd	-2.7118409
111	0xc02476ce	-2.5697513
112	0xc06c1f52	-3.6894116
113	0x41a3b0fe	20.461422
114	0xc08a95c2	-4.330781
115	0xc095e46e	-4.6841345
116	0xc073fd92	-3.8123517
117	0xc09fa469	-4.9888196
118	0x3f873c17	1.0565213
119	0xbfec1d09	-1.8446361
120	0xc0181825	-2.3764737
121	0xbf9b85a1	-1.2150155
122	0x3fbea7b0	1.4894924
123	0xbf91a5b4	-1.1378694
124	0xbf88d4cb	-1.0689939
125	0x400830df	2.1279829
126	0x3f1c668e	0.61093986
127	0xc0da5253	-6.8225493
128	0x3f9f350e	1.2438066
129	0x3f8d801b	1.105472
130	0x402a4f13	2.6610763
131	0x3ec67a9c	0.3876542
132	0xbfa7f549	-1.312173
133	0x40ca7e2b	6.3279014
134	0xc20573f4	-33.363235
135	0x40aac9c5	5.33713
136	0x40d3d81a	6.6201296
137	0x40c2c8b8	6.087002
138	0x40b7d83f	5.745147
139	0xbf98d743	-1.1940693
140	0x40d56bcc	6.669409
141	0xc1fc9d8d	-31.57693
142	0x40ad162e	5.4089575
143	0x40f55556	7.666667
144	0x40cab354	6.3343906
145	0x40c5e154	6.183756
146	0x3ea72f15	0.32653108
147	0xc005e9e7	-2.0924013
148	0x3e045ee3	0.12926821
149	0xc0076b12	-2.11591
150	0xc005708d	-2.0849946
151	0xbea1d796	-0.31609792
152	0xbfd63042	-1.6733477
153	0x4016fc9f	2.3591688
154	0x4040254a	3.002276
155	0xc190becd	-18.093164
156	0x4053f9a1	3.3121111
157	0x40bee53c	5.9654827
158	0x40a35c67	5.1050296
159	0x40367eba	2.8514848
160	0x3e786e15	0.24260743
161	0x402abd59	2.6678069
162	0xc17d1922	-15.818636
163	0x401ff5f4	2.4993868
164	0x40465938	3.0991955
165	0x40582954	3.3775225
166	0x40377742	2.866654
167	0x3f81333f	1.0093764
168	0xbfd905ed	-1.6954933
169	0xbec62710	-0.38701677
170	0xbf2023b2	-0.62554467
171	0x3f89e3c5	1.0772635
172	0xbeae1b77	-0.3400533
173	0x3e99eba0	0.3006258
174	0x3efae67e	0.49003977
175	0xc0c46488	-6.137272
176	0x41d1b86c	26.21505
177	0xc099f94f	-4.811683
178	0xc06dffca	-3.7187371
179	0xc0b39b29	-5.6126904
180	0xc0abc9e3	-5.3683944
181	0xbfcb2f7c	-1.5873866
182	0xc09dd6f7	-4.932491
183	0x41d9b00b	27.210958
184	0xc0815e60	-4.0427704
185	0xc07adcb4	-3.9197206
186	0xc09ab828	-4.83498
187	0xc0a256c8	-5.0730934
188	0xbfb18332	-1.3868163
189	0xbf131cc1	-0.5746575
190	0xc05d2a14	-3.4556932
191	0xbf6375c2	-0.8885156
192	0x3e32e567	0.17470323
193	0xbed7459e	-0.420453
194	0x3f8439bd	1.033012
195	0x3f5738e6	0.84071195
196	0xbd95a3df	-0.073066466
197	0x3fc32246	1.5244834
198	0x3e2ea709	0.17055906
199	0xbfacc3a7	-1.3497208
200	0xbfc83809	-1.56421
201	0xbff22b49	-1.891946
202	0x40774191	3.8633769
203	0xc06a1de7	-3.658075
204	0x411aa54f	9.665359
205	0xbfc2fccb	-1.5233396
206	0xbf82d2b8	-1.0220556
207	0xbe832814	-0.25616515
208	0xbfca2a3f	-1.5794142
209	0xbf42bb72	-0.7606727
210	0xc07c4f00	-3.9423218
211	0x41a04efc	20.038567
212	0xc06667bf	-3.6000822
213	0xc08a99a4	-4.331255
214	0xc02980c0	-2.6484833
215	0xc04a393d	-3.1597435
216	0xbf6b53e3	-0.91924876
217	0xc0521f04	-3.283143
218	0x41547b15	13.280049
219	0xc0860655	-4.188273
220	0xbfa13646	-1.2594688
221	0xc0983e33	-4.7575927
222	0xc02c5c41	-2.6931307
223	0x4032394a	2.7847466
224	0xbf8cd9fc	-1.1004024
225	0x410ffcde	8.999235
226	0xc01c650e	-2.443668
227	0xbf5b392c	-0.8563411
228	0xbf4f6509	-0.8101354
229	0xbf84ce4b	-1.0375456
230	0xc0602b0e	-3.5026278
231	0xbf84fd61	-1.0389825
232	0x409eb8b9	4.960049
233	0xc01e7f28	-2.476511
234	0xc0007c4f	-2.0075872
235	0xbf802eb7	-1.0014256
236	0xbfaa4a71	-1.3303968
237	0xbf4fccb1	-0.8117171
238	0x3f9599eb	1.1687597
239	0xc098b7b7	-4.772426
240	0x3f8a29c1	1.0793992
241	0x4006ef5e	2.1083598
242	0x3f9e8842	1.2385333
243	0x402d4fa7	2.7079866
244	0x3e27576d	0.16341944
245	0xc108ef29	-8.558389
246	0x42206e17	40.10751
247	0xc115ebbb	-9.370051
248	0xc10d05e9	-8.813943
249	0xc1015e80	-8.085571
250	0xc0dc31ee	-6.881095
251	0xbe8950db	-0.268195
252	0xbe213a66	-0.15744933
253	0x4112964a	9.161692
254	0xbf9c0746	-1.218972
255	0xbff27b54	-1.8943887

b f4 [7]
0	0x414dbcf9	12.858636
1	0xc25d626b	-55.34611
2	0x41195e57	9.585532
3	0x419b575d	19.417658
4	0x4149dd03	12.616458
5	0x40cfaf89	6.4901776
6	0xc0b42bcc	-5.6303463
