models/emotion_model_iter3.pth (torch, 23429 bytes, 2 tensors)

W f4 [768, 7]
000000 e9 ad 69 40 49 e2 a0 c1 fa d0 90 40 24 13 f5 3f
       3.6512396 -20.11049 4.52551 1.9146466
000010 5f 8e 67 40 7c a7 90 40 cb 28 a9 3e e6 0f b7 be
       3.6180646 4.520445 0.33038935 -0.35754317
000020 cc 87 a5 40 72 9c aa bf 71 f5 d4 be d1 7c c9 bf
       5.172827 -1.3328993 -0.41593507 -1.5741216
000030 86 ff fe 3f 74 65 d3 3c bf fe 33 c0 84 c2 3b 41
       1.992173 0.025805213 -2.8124235 11.734989
000040 c5 8f 10 c0 87 15 cd bf 8b be 5f c0 31 6e 5b c0
       -2.258775 -1.6022195 -3.4960048 -3.4286005
000050 29 49 3c 3e fc 70 59 40 1c 4e 53 c1 fd af 5d 40
       0.18387283 3.397521 -13.20657 3.4638665
000060 58 95 90 40 5a 84 f7 3f 89 31 aa 3e a2 98 0e 40
       4.5182304 1.9337265 0.33240917 2.228066
000070 0d bb 2a c0 54 cf c8 40 25 0b 2a c0 04 a1 a3 3d
       -2.6676667 6.2753086 -2.6569302 0.07989696
000080 68 a4 31 c0 fd 53 5b c0 3a 1a 6a bf 14 13 79 40
       -2.7756596 -3.4270012 -0.9144627 3.8917894
000090 fb 88 a9 c1 ef 92 96 40 ee 9a 56 40 f8 94 5e 40
       -21.191885 4.705436 3.3532062 3.4778423
0000a0 09 34 94 40 07 43 91 bf 3c 24 9d 3f 38 9a 35 c1
       4.631352 -1.134858 1.2276683 -11.350151
0000b0 28 0a 40 40 91 6a 8d 40 af a9 a7 3f 5c 4a 2e 40
       3.00062 4.4192586 1.3098658 2.7232885
0000c0 76 f3 8a 3f 35 01 e9 3e 9e 32 2a c0 5e 3a a2 be
       1.0855548 0.45508733 -2.6593394 -0.31685156
0000d0 31 1d b8 3e 1a 20 78 3e e1 51 7d bf ba 24 27 3f
       0.3595977 0.24230996 -0.9895306 0.65290415
0000e0 60 d3 e0 3e b5 cb 0e c1 cf 87 87 3f c9 c5 85 40
       0.43911266 -8.924733 1.058832 4.1803937
0000f0 b5 b4 d9 3f 2c b5 7e be d1 60 e1 3f 2a 49 ef bf
       1.7008272 -0.24873799 1.7607671 -1.8694203
000100 10 7d ff 40 5b 7c 12 bf 45 fd 21 c0 6a f5 ce bf
       7.9840164 -0.57221 -2.5310833 -1.6168644
000110 7f 2b 58 c0 38 61 97 3e 19 42 a9 3f da 71 25 c0
       -3.3776548 0.2956636 1.3223296 -2.585074
000120 3b 19 f2 3f 4e d0 43 3f 35 3c 85 3f bc 4a b9 be
       1.891395 0.7648972 1.0408999 -0.3618983
000130 ad ed 5c bf 6c c9 ad be 82 ac 11 41 d4 01 65 be
       -0.86300164 -0.33942735 9.104616 -0.22363979
000140 46 66 09 c0 7c c7 99 bf 96 78 5f bf 51 93 0e 40
       -2.1468673 -1.2014003 -0.87293375 2.2277415
000150 42 fa 31 3d 70 c6 cd 3f 95 32 8a bf 53 0e 03 3f
       0.043451555 1.6076183 -1.0796686 0.5119373
000160 dc 20 95 bf c9 db 86 3f 32 9d f3 bf d8 69 65 3f
       -1.1650653 1.0535823 -1.9032347 0.8961463
000170 10 f2 61 40 83 9d 14 3e d6 d5 87 3f 01 da e1 bf
       3.5303993 0.14513211 1.0612133 -1.7644655
000180 77 76 84 bf cf 03 e3 3f b1 40 64 bf 76 c7 68 40
       -1.0348653 1.7735537 -0.8916121 3.6371741
000190 a0 e1 be bd c4 96 07 bf 91 84 b6 bf 92 10 10 c0
       -0.09320378 -0.52964425 -1.4259206 -2.2510114
0001a0 1c d7 8c be e0 ff b3 3c c0 0a 11 c0 80 9c 97 bf
       -0.27507865 0.021972597 -2.2662811 -1.1844635
0001b0 bd de ba 3f 52 15 0a 3d a5 fe 87 3e 32 bc b5 bd
       1.4599224 0.03371174 0.26561466 -0.08873786
0001c0 a8 27 92 bf 56 f5 e9 40 57 6c b2 bf ee 96 e7 bf
       -1.1418352 7.311198 -1.3939313 -1.8092935
0001d0 3d 26 ed bf cd 3d 44 c0 d2 ab 0f 3e 81 14 4e 3f
       -1.8527294 -3.066272 0.14030388 0.80500036
0001e0 8e 46 3f c1 f1 bc d1 3f 0c 76 5a 40 bd c2 ab 3f
       -11.954725 1.6385785 3.413455 1.3418804
0001f0 27 94 0a 40 23 7e d7 3f c8 21 a8 3f e9 e3 11 c1
       2.1652925 1.6835369 1.3135309 -9.118142
000200 43 4e cd 3f c4 fb 97 3f 29 b4 2e 40 9a db f2 3f
       1.6039509 1.1873708 2.729746 1.8973267
000210 26 8a c3 3f 42 bc 08 41 55 48 0a c2 5d 93 fc 40
       1.5276535 8.545961 -34.570637 7.8929887
000220 ba 54 dd 40 b3 15 d9 40 aa ff ca 40 49 96 b1 bf
       6.9165926 6.783899 6.343709 -1.3873988
000230 1f 9b 01 40 df f3 42 c1 ce 34 ec 3f 60 e7 1c 40
       2.0250928 -12.184539 1.8453615 2.451622
000240 7d e2 e0 3f dd 8f 42 40 8e a5 68 3f 59 da 04 40
       1.7569119 3.0400307 0.90877616 2.075827
000250 47 52 8c c1 51 bc 51 40 18 df f5 3f c7 29 55 40
       -17.540174 3.277119 1.9208708 3.330675
000260 59 bf 3e 40 72 e8 d9 3e cc 7d 2d bf 47 fc 10 c0
       2.980429 0.42560154 -0.67770076 -2.2653978
000270 a8 f5 f3 3e 1b 51 20 40 36 1e 14 3f b9 7f 71 be
       0.47648358 2.5049503 0.578586 -0.23583879
000280 e1 56 95 3f 6d 16 68 3f 69 3a 12 c1 d5 a2 0b 40
       1.1667138 0.9065922 -9.13926 2.1818135
000290 60 cd 17 40 da e8 b9 3f a9 5a cb 3e c0 93 ed 3e
       2.37191 1.4524186 0.39717606 0.46401787
0002a0 79 c0 16 bf 1f 17 cb c0 cd 23 0d 3f 06 70 c5 3f
       -0.5888744 -6.3465724 0.5513275 1.5424812
0002b0 93 f1 b3 be 26 e8 20 3f 7a b7 fa bd 3f 71 de c0
       -0.35145244 0.6285423 -0.122420266 -6.951324
0002c0 a7 cc fa 41 b9 b7 9d c0 4a 41 8c c0 82 69 c1 c0
       31.349928 -4.928677 -4.38297 -6.0441294
0002d0 fc 3f f1 c0 75 aa 6c be f5 e9 45 c0 ce 05 40 41
       -7.5390606 -0.23111899 -3.0924046 12.001417
0002e0 c4 76 25 bf a1 d1 dc bf f5 d2 d6 bf b1 60 51 c0
       -0.64634347 -1.7251474 -1.6783129 -3.2715266
0002f0 ca 38 0d c0 73 f1 e5 3f 51 11 83 c1 51 bc fb 3f
       -2.2065911 1.796431 -16.383455 1.9666845
000300 c1 51 1f 40 ac da 18 40 e0 4e 33 40 07 4d 59 3f
       2.4893649 2.3883467 2.8016891 0.8488316
000310 aa a5 2b c0 3a 19 46 41 41 94 d2 bf 85 8f 81 c0
       -2.6819863 12.381159 -1.6451494 -4.0487695
000320 94 af 69 c0 4f ac 3b c0 eb f1 15 3f 59 1f ff bf
       -3.6513414 -2.932392 0.5857226 -1.9931442
000330 84 c3 a6 40 d6 fb c5 3c d9 3a 08 3f 78 08 d3 be
       5.2113667 0.024167936 0.53214794 -0.412174
000340 33 07 0b c0 80 62 b9 be 65 3a 5d c0 c2 00 6a 41
       -2.1723144 -0.36207962 -3.4566891 14.625185
000350 f3 4c 4d c0 89 e4 6c c0 a8 6c 48 c0 5c b6 89 c0
       -3.2078216 -3.7014487 -3.1316319 -4.3035107
000360 ec 29 2e c0 ec dc d2 be cd 59 c4 3f 62 b4 88 bf
       -2.7213087 -0.41184175 1.5339905 -1.0680048
000370 4a 9f dc 3f da b2 89 bf b2 eb a7 bf 87 a2 2d bc
       1.7236111 -1.0757706 -1.3118804 -0.010597832
000380 3a 7e 4d 3f 90 1b c2 bf 38 97 15 3f b2 54 c8 3f
       0.8027073 -1.5164661 0.58433867 1.5650847
000390 f0 ea cc 3f d6 4a b4 bd 0e 8b d2 3d 66 b2 d7 bf
       1.6009197 -0.08803336 0.10280429 -1.6851318
0003a0 d4 0c 11 41 f6 07 17 c0 d6 70 12 c0 66 0b e1 bf
       9.065632 -2.359861 -2.288137 -1.7581604
0003b0 61 4b 12 c0 b6 c5 51 bf f0 ed 29 c0 79 88 27 41
       -2.2858508 -0.8194231 -2.6551476 10.4708185
0003c0 d3 b2 00 c0 92 a1 9a bf 74 1d 0d c0 fe 08 fd bf
       -2.0109146 -1.2080557 -2.2049227 -1.9768369
0003d0 36 36 00 3e f9 de 8d c0 2c 3f 62 41 d7 a4 40 c0
       0.1252068 -4.4334683 14.140423 -3.010061
0003e0 7f b0 94 c0 24 e8 62 c0 dc 15 a4 bf 92 63 e5 3f
       -4.646545 -3.5454187 -1.2819171 1.7921011
0003f0 1b fe ff be 65 3f 50 40 8d 20 26 be 72 07 61 bf
       -0.49998555 3.2538693 -0.16223355 -0.87901986

b f4 [7]
000000 3c 4b 07 41 b7 0e 1e c2 79 cb 1c 41 18 7f 87 41
       8.455868 -39.51437 9.799676 16.937057
000010 54 98 cd 40 cb 3a 78 3f e2 06 45 c0
       6.4248447 0.9696471 -3.078545
