models/emotion_model_iter1.pth (torch, 23429 bytes, 2 tensors)

W f4 [768, 7]
3.4645004 -19.908428 4.9245553 3.3696728 4.2111464 4.433877 0.34042627 2.137457
-8.225981 0.9640286 -0.3836611 1.0151671 4.8255134 0.73515254 -1.4882834 -0.20349397
-1.1425128 0.6386867 -1.5208161 -1.6729938 1.1472377 -0.046840914 -5.1932926 0.048246343
0.97365934 -0.3882427 -1.6509943 -0.6233835 0.65720445 -3.1267288 0.08670762 2.1528597
0.5979448 -0.6515512 0.09131521 1.1528581 -3.6790664 0.5747123 0.14882962 1.01461
1.6229364 -1.2797132 -0.24620803 -5.217324 0.9298342 3.2231195 0.87440854 1.941507
0.93832207 2.8900743 -15.306084 3.4474142 2.6764169 3.1822898 2.1796227 -0.20337833
-0.2060886 -3.1868513 0.4702597 3.415863 2.3337622 0.24623838 -0.98052186 -0.24799342
5.6454687 -0.42290333 -1.891229 -0.57393134 -1.9241887 1.8909343 5.762336 -22.39331
5.0844493 4.1001577 5.286069 3.6390631 -0.3478745 -0.5834661 6.8218484 -0.62954855
-2.2220592 -0.72810537 -0.5002275 -0.15497245 2.0126212 -8.364125 0.8023201 2.5796535
0.46219653 2.9342313 -1.037454 -2.7222235 16.212334 -2.9711065 -3.3197947 -5.010451
-4.8049026 0.34164265 0.586629 -4.9916005 1.5857548 0.8177224 -0.53491986 0.38776484
0.8654364 1.3034171 -3.5593376 0.6532257 1.176961 1.5676674 2.5801127 1.0283644
-4.265297 19.885567 -4.0273542 -3.728522 -4.414578 -5.5520697 0.4717768 0.8865603
-15.001329 2.029094 4.3278694 2.3266206 3.3224845 1.7418061 -3.4717705 13.251325
-2.6904752 -3.8341966 -1.3685502 -1.5661615 1.5061035 5.8492527 -30.419113 6.616529
6.8597665 6.1207533 6.335813 -1.2213297 0.6235657 -7.402326 0.32323834 0.9766026
0.7034142 1.5871485 -0.6275294 3.6649692 -27.410275 4.4830503 4.290201 5.8735657
5.1528416 -0.032407425 -0.79933053 -2.8277385 0.60093766 1.5178639 1.6601784 1.5208126
0.85163766 1.0446028 -5.5759473 2.9614522 2.6965008 2.498309 1.4707937 -0.86055326
0.6862241 -9.9458885 1.3669832 3.2240314 1.3157581 2.9886777 1.1780095 -10.360453
44.183987 -8.470263 -7.6485143 -9.592065 -10.325448 1.8026679 -0.40778768 0.759445
0.7896046 0.50173455 -0.09807265 -0.56483907 -1.4054306 1.071318 -11.14893 2.2310464
1.787912 1.6166621 2.4061754 -0.34841824 -2.438467 7.6066413 -1.8183016 -4.407863
-3.1507914 -2.609344 -0.8128121 3.5987391 -28.707697 5.315422 6.547529 6.3535733
4.755388 -1.589731 -3.2468395 15.706324 -2.9070864 -3.8553774 -2.6664665 -2.9568694
-0.88427037 0.3576067 -5.638378 -0.23185839 1.3384817 -0.3720121 1.2764193 0.8048882
-2.6139991 13.918263 -2.5316834 -1.9855317 -2.2630181 -2.6571357 -0.1526 0.5102847
-1.4069148 -0.5664101 0.95765686 1.1340748 0.23136723 -0.74537015 2.0061886 -13.640663
2.2473104 2.895134 3.3479745 3.2467813 -0.6356084 -2.073377 3.2045991 -1.7161773
-1.989269 -1.0748379 1.8849889 -2.0934565 2.3846695 -2.8787196 2.040107 -0.42348182
00000000: 60ba 5d40 7644 9fc1 f595 9d40 b8a8 5740
00000010: b6c1 8640 52e2 8d40 5a4c ae3e 18cc 0840
00000020: 9e9d 03c1 94ca 763f 3a6f c4be fff0 813f
00000030: 9b6a 9a40 f532 3c3f 1280 bebf b960 50be
00000040: dc3d 92bf f980 233f 1aaa c2bf a924 d6bf
00000050: afd8 923f 42dc 3fbd 742f a6c0 f59d 453d
00000060: bd41 793f bfc7 c6be c853 d3bf 1096 1fbf
00000070: 8d3e 283f 531c 48c0 c493 b13d 74c8 0940
00000080: e912 193f 0fcc 26bf 7803 bb3d db90 933f
00000090: d375 6bc0 5820 133f cb66 183e bede 813f
000000a0: 61bc cf3f a4cd a3bf f51d 7cbe 51f4 a6c0
000000b0: 9d09 6e3f 9747 4e40 3dd9 5f3f 4d83 f83f
000000c0: e035 703f faf6 3840 b8e5 74c1 6fa2 5c40
000000d0: 6a4a 2b40 a3aa 4b40 f07e 0b40 6942 50be
000000e0: e408 53be 5ff5 4bc0 e1c5 f03e 809d 5a40
000000f0: 5c5c 1540 ea25 7c3e 7b03 7bbf fdf1 7dbe
00000100: aea7 b440 c986 d8be cb13 f2bf 2aed 12bf
00000110: d14b f6bf 230a f23f 0e65 b840 8025 b3c1
00000120: cfb3 a240 7e34 8340 7a27 a940 69e6 6840
00000130: 9b1c b2be 095e 15bf 954c da40 182a 21bf
00000140: 3836 0ec0 1d65 3abf e90e 00bf 19b1 1ebe
00000150: c9ce 0040 75d3 05c1 da64 4d3f 0b19 2540
00000160: 06a5 ec3e 72ca 3b40 4bcb 84bf e938 2ec0
00000170: dcb2 8141 9c26 3ec0 8477 54c0 9d55 a0c0
00000180: c3c1 99c0 c9eb ae3e 512d 163f 31bb 9fc0
00000190: 03fa ca3f 4156 513f 82f0 08bf 1d89 c63e
000001a0: 3d8d 5d3f 5fd6 a63f 30cc 63c0 cd39 273f
000001b0: a8a6 963f 53a9 c83f 9120 2540 72a1 833f
000001c0: 507d 88c0 a415 9f41 16e0 80c0 1ba0 6ec0
000001d0: 3944 8dc0 8eaa b1c0 bb8c f13e 9ef5 623f
000001e0: 7205 70c1 addc 0140 e87d 8a40 5ae7 1440
000001f0: 96a3 5440 81f3 de3f 7d31 5ec0 6d05 5441
00000200: bf30 2cc0 7a63 75c0 a72c afbf fb77 c8bf
00000210: 00c8 c03f 142d bb40 585a f3c1 9bba d340
00000220: 3583 db40 36dd c340 fbbe ca40 8854 9cbf
00000230: 00a2 1f3f dbdf ecc0 7f7f a53e a102 7a3f
00000240: f412 343f af27 cb3f c4a5 20bf db8e 6a40
00000250: 3e48 dbc1 2675 8f40 5449 8940 40f4 bb40
00000260: 14e4 a440 a6bd 04bd eda0 4cbf abf9 34c0
00000270: 0dd7 193f 5d49 c23f ba80 d43f fda9 c23f
00000280: ed04 5a3f 8bb5 853f 296e b2c0 6f88 3d40
00000290: 7893 2c40 4be4 1f40 f842 bc3f 384d 5cbf
000002a0: 62ac 2f3f 5c22 1fc1 4ef9 ae3f 8856 4e40
000002b0: c36a a83f 7f46 3f40 04c9 963f 6ac4 25c1
000002c0: 67bc 3042 3286 07c1 a1c0 f4c0 1979 19c1
000002d0: 0935 25c1 d2bd e63f 8cc9 d0be fd6a 423f
000002e0: 8723 4a3f ad71 003f 50da c8bd 4b99 10bf
000002f0: 26e5 b3bf f320 893f 0462 32c1 77c9 0e40
00000300: 4dda e43f c9ee ce3f c7fe 1940 e063 b2be
00000310: d80f 1cc0 9b69 f340 1bbe e8bf 370d 8dc0
00000320: 91a6 49c0 7eff 26c0 7414 50bf be51 6640
00000330: 5da9 e5c1 f017 aa40 5c85 d140 7950 cb40
00000340: 232c 9840 4e7c cbbf 38cc 4fc0 1a4d 7b41
00000350: b40d 3ac0 81be 76c0 63a7 2ac0 593d 3dc0
00000360: 8b5f 62bf 3a18 b73e 986d b4c0 496c 6dbe
00000370: 5e53 ab3f 5f78 bebe b561 a33f 270d 4e3f
00000380: c34b 27c0 35b1 5e41 1a07 22c0 e725 febf
00000390: 4ad5 10c0 830e 2ac0 2d43 1cbe 05a2 023f
000003a0: c915 b4bf 4100 11bf 0029 753f 5d29 913f
000003b0: 88eb 6c3e 94d0 3ebf 6565 0040 2840 5ac1
000003c0: efd3 0f40 e049 3940 3745 5640 44cb 4f40
000003d0: 3bb7 22bf 35b2 04c0 2718 4d40 b3ab dbbf
000003e0: 5ea0 febf 4a94 89bf 5147 f13f 31fb 05c0
000003f0: 6d9e 1840 f13c 38c0 1d91 0240 9cd2 d8be

b f4 [7]
7.8663845 -50.637466 9.302955 17.407913 11.348342 7.364538 -2.659945
00000000: 6cb9 fb40 c48c 4ac2 e7d8 1441 6843 8b41
00000010: cf92 3541 4caa eb40 8a3c 2ac0
