models/emotion_model_iter4.pth (torch, 23429 bytes, 2 tensors)

W f4 [768, 7]
000000 a4 b5 25 40 13 ae 9e c1 30 6c 7f 40 39 ac 23 40
       2.5892115 -19.834997 3.9909782 2.5573866
000010 28 a7 5a 40 63 7a 8d 40 f5 ca 4d 3e 53 e0 49 c0
       3.4164524 4.42119 0.20096953 -3.1543167
000020 1f 9f 4e 41 f0 2c 93 c0 28 3e 0e c0 6f 5d 54 c0
       12.913848 -4.5992355 -2.2225437 -3.3182027
000030 b9 16 4b bf 22 09 c3 3e bf 1f 1f c0 5d 7c 90 40
       -0.7933155 0.38092905 -2.4863126 4.515181
000040 0f 0a e6 bf c4 4d a6 3e 40 07 07 c0 92 4e 55 c0
       -1.797182 0.32481205 -2.1098175 -3.3329206
000050 ab 8a 6f 3d 9b 5f c1 3e 19 37 86 bf 19 5f 0f 3d
       0.058481853 0.37768254 -1.0485564 0.0350028
000060 13 38 e2 3f 44 16 f5 be f2 21 0c bf 0a 16 80 3e
       1.7673362 -0.4786855 -0.54739296 0.25016814
000070 7d ce 34 40 fc f3 2a c1 50 60 fc 3f 5e 6e 8d 40
       2.825103 -10.6845665 1.9716892 4.4197226
000080 c0 d6 0e 40 bd 45 8f 3f a5 c6 0c bc dd bb 5d c0
       2.2318573 1.1193157 -0.008592282 -3.4645913
000090 79 b1 6d 41 54 70 76 c0 05 5b 80 c0 8c 87 7d c0
       14.855828 -3.850606 -4.011111 -3.9613981
0000a0 43 2f 35 c0 51 04 4a 3f 01 ca 98 c0 b9 8f 72 41
       -2.8310096 0.78912836 -4.7746587 15.160089
0000b0 b1 20 87 c0 27 34 b9 bf a0 e9 ad c0 0b 71 4d c0
       -4.2227407 -1.4469041 -5.4347687 -3.2100246
0000c0 ab b1 2c 3f 28 f6 9e 40 fc 12 a9 c1 7c 10 77 40
       0.674586 4.9675484 -21.13427 3.8603811
0000d0 20 e0 80 40 57 64 90 40 db 11 62 40 17 6c d5 be
       4.027359 4.5122485 3.5323398 -0.41684029
0000e0 63 63 1e 3e 44 d0 20 c0 5f 9a 34 bd 06 11 37 40
       0.154676 -2.5127115 -0.044092532 2.860414
0000f0 cd 3f 81 3f 6e c8 ab bf d9 a2 84 3f 7d 13 68 bf
       1.0097595 -1.3420541 1.0362197 -0.90654737
000100 f7 6a 25 41 b1 12 0d c0 2e dd 34 c0 25 27 c8 bf
       10.338614 -2.2042658 -2.8259997 -1.5636946
000110 7f 57 8d c0 48 e3 bc be 48 8b 7a 40 30 77 4e c1
       -4.4169307 -0.36892152 3.914751 -12.9040985
000120 71 17 61 40 28 a7 69 40 25 11 4f 40 03 df 0b 40
       3.5170557 3.6508274 3.2354214 2.1854866
000130 94 34 90 be 25 b8 9f c0 5a de dd 41 c0 f7 ab c0
       -0.28165114 -4.9912286 27.73357 -5.373993
000140 bd 20 de c0 c9 1c c1 c0 d6 63 96 c0 48 3e 99 be
       -6.9414964 -6.034764 -4.699687 -0.2993033
000150 6a 13 33 bf 13 7e 92 40 94 03 93 bf 98 d6 2b 3f
       -0.699515 4.57789 -1.1485467 0.6712432
000160 1b a7 9c bf d4 c0 ff 3f 8e 2e 97 3f e8 39 3f c0
       -1.2238497 1.9980721 1.1811082 -2.9879093
000170 fa d4 83 41 2f 90 36 c0 7a c6 4f c0 f1 8b a8 c0
       16.478992 -2.8525503 -3.246489 -5.2670827
000180 e4 57 a1 c0 37 5b 2e bf bd 8f 84 c0 6e 48 84 41
       -5.041979 -0.6810793 -4.142546 16.535366
000190 51 2d 4b c0 a0 68 31 c0 63 5b 8d c0 66 4d 5a c0
       -3.174641 -2.7720108 -4.4174056 -3.410974
0001a0 5f af a4 3f bf a9 93 c0 c0 dc 9c 41 23 17 ac c0
       1.2866019 -4.614471 19.607788 -5.3778243
0001b0 e8 9e 34 c0 21 e9 83 c0 d1 fc 8f c0 22 40 e8 3f
       -2.8221989 -4.122208 -4.4996114 1.8144572
0001c0 a3 ae 45 c0 90 08 65 41 12 b6 51 c0 75 7d 40 c0
       -3.088784 14.31459 -3.2767377 -3.0076573
0001d0 86 01 6a c0 14 db 91 c0 40 93 97 3e aa 96 d0 3e
       -3.656343 -4.557993 0.2960453 0.40739948
0001e0 a1 d2 93 c0 d1 03 18 3e de 41 3a 40 54 7e 53 3f
       -4.6194615 0.14845206 2.9102702 0.82614636
0001f0 a9 a8 a9 3f 25 72 ab 3f ca ea 34 c0 d1 93 12 41
       1.3254596 1.3394209 -2.8268304 9.161088
000200 b3 da fb bf 29 6a 50 c0 52 43 c7 bf 6b fd b7 bf
       -1.9676117 -3.2564795 -1.556742 -1.4374212
000210 f2 af a9 3f 3d a9 1b 41 31 ff 48 c2 db 5c 13 41
       1.3256819 9.728818 -50.24921 9.21017
000220 43 da 22 41 fc d1 11 41 0e a0 28 41 b5 ca 0d bf
       10.178287 9.113766 10.539076 -0.5538743
000230 60 26 c9 40 a6 73 07 c2 66 08 9e 40 93 a5 b6 40
       6.2859344 -33.862938 4.938525 5.7077117
000240 8e 3c aa 40 c2 4a e2 40 c3 41 09 3e 3c af 65 40
       5.319892 7.0716257 0.13403992 3.5888205
000250 62 62 d7 c1 b1 53 76 40 a2 03 96 40 98 b9 a3 40
       -26.923038 3.848858 4.6879435 5.1164055
000260 d6 3e 96 40 b7 40 20 3f ca 37 12 40 9a 87 68 c1
       4.6951704 0.62598747 2.284655 -14.533106
000270 6d be 6a 40 e2 62 a0 40 98 07 96 40 fa 9e 46 40
       3.6678727 5.0120707 4.688427 3.1034532
000280 14 eb 09 bf d0 40 30 c0 12 f1 5d 41 2e 14 22 c0
       -0.53874326 -2.7539558 13.871355 -2.5324817
000290 43 87 dd bf 7d 9a 4e c0 d5 53 9d c0 f2 a6 b2 3f
       -1.7306904 -3.2281792 -4.9164834 1.3957198
0002a0 ee dc aa bf 7c e4 74 c0 84 32 a6 3e ac a6 12 40
       -1.3348672 -3.8264456 0.32460415 2.2914228
0002b0 df e3 95 be e3 ae 25 3f 7b 71 77 3e b2 20 c2 c0
       -0.29275414 0.6471998 0.24164383 -6.066491
0002c0 89 c6 c2 41 75 79 94 c0 c9 8d 4a c0 96 49 b9 c0
       24.346941 -4.6398263 -3.1649039 -5.7902327
0002d0 76 a0 b5 c0 5d f5 c7 bf f6 52 41 40 64 02 24 c1
       -5.6758375 -1.5621754 3.0206885 -10.250584
0002e0 20 e8 6e 40 4e 7b 77 40 4b 4e 1e 40 40 2d be 3f
       3.7329178 3.866901 2.4735286 1.4857559
0002f0 13 fc 03 bf 21 bb 79 40 bc 35 bc c1 c7 06 7c 40
       -0.5155651 3.9020464 -23.526237 3.9379137
000300 65 35 aa 40 8d a5 75 40 40 12 87 40 27 ed 89 3f
       5.319018 3.8382294 4.220978 1.0775498
000310 24 48 b1 3f ce f5 29 c0 df bd 9b 3f d0 b7 ce bf
       1.385014 -2.6556277 1.2167319 -1.6149845
000320 42 87 1f be 8b 3e 07 3e f0 ab b2 3f d8 cb ba be
       -0.1557894 0.13207452 1.3958721 -0.36483645
000330 ce 23 c9 c0 47 d1 bc 3f 7e 4d 02 40 fd 2a a5 3f
       -6.2856207 1.4751366 2.0359797 1.2903744
000340 62 36 5e 3f b8 c2 65 3f 14 ce c8 c0 92 8d f1 41
       0.8680173 0.8975024 -6.275156 30.194126
000350 31 27 b8 c0 b8 ef d5 c0 9d 3a a0 c0 c0 d6 d2 c0
       -5.754784 -6.6855125 -5.007155 -6.5887146
000360 0f 19 e0 bd bb f9 29 40 d6 f8 78 c1 f5 19 ae 3f
       -0.109422795 2.6558673 -15.560751 1.3601671
000370 9a 63 93 40 8d 97 e8 3f ca 8f 72 40 60 62 b8 3e
       4.6059084 1.817125 3.7900262 0.36012554
000380 ee 37 21 c0 e4 ea 5b 41 b5 53 39 c0 d8 4d de bf
       -2.5190387 13.744846 -2.895734 -1.7367506
000390 a8 b0 e8 bf b7 69 50 c0 be 38 b1 3e fa 48 44 c0
       -1.8178911 -3.2564523 0.34613603 -3.0669541
0003a0 0e 77 76 41 85 ac 92 c0 a2 08 2d c0 9d df 56 c0
       15.404066 -4.5835595 -2.703652 -3.3573983
0003b0 08 96 8d c0 f1 d5 2c bd 05 01 88 be 76 66 4a c0
       -4.4245644 -0.042196218 -0.26563278 -3.1625037
0003c0 11 18 2f bf 6c ff 4a 3e 45 16 3f bf c7 4f ab 3e
       -0.683961 0.19823998 -0.74643356 0.33459303
0003d0 ab 80 d9 3f de d6 d0 c0 84 69 df 41 77 f8 e3 c0
       1.6992391 -6.526229 27.926521 -7.12408
0003e0 6d 4e c6 c0 55 d3 be c0 64 a5 8c c0 61 6c 69 3f
       -6.1970735 -5.9632974 -4.3951893 0.91181
0003f0 e3 5e ae bf 19 e5 65 41 7c da 00 c0 5c 54 36 c0
       -1.3622707 14.368432 -2.0133352 -2.848899

b f4 [7]
000000 b8 77 37 41 31 44 6f c2 9f 2e 33 41 53 69 b1 41
       11.466728 -59.816593 11.198882 22.176428
000010 3a f0 46 41 25 3c ba 40 7f 0f 52 c0
       12.433649 5.819842 -3.2821958
