models/emotion_model_iter2.pth (torch, 23429 bytes, 2 tensors)

W f4 [768, 7]
00000000: a3e4 8a40 1b7a c5c1 424c aa40 548c 8340
00000010: 104d a440 c461 c040 7940 6fbf 8ce0 a0c0
00000020: 2ba4 c241 da87 c5c0 92bf 97c0 217e bbc0
00000030: e705 3bc0 d3bb 14bf 00bf 82bf 3b2d 2f40
00000040: eb77 2dbf e50b 883f 4db6 0dc0 31d6 78bf
00000050: e5fb a3be 2ec1 8abf 4294 e840 3c4e a6bf
00000060: 6c88 0b3d 5055 d9bf a4e4 22c0 4f1d 03bf
00000070: b41b 7dbf d856 8940 7feb b3bf 5562 9d3d
00000080: bf7a 8fbf 09cb 0dc0 dcc1 8abd 5a50 11c0
00000090: 66ea d640 2d6f c8bf df86 49c0 43d9 1ac0
000000a0: ed1d 06c0 4716 8f3f 8d1e ff3f b41a 59c1
000000b0: 7210 4340 62c6 aa40 ec98 1240 69e0 3840
000000c0: cf0e e6be 6570 bc40 d833 d7c1 b1bf 9340
000000d0: 188c 6940 a0fc b840 5aba 2e40 8ca4 93bf
000000e0: ccdf fc3e bbf3 95c0 58b7 cf3f 7c90 5040
000000f0: 6e6f b43f 68d0 aabf 9348 1a3f 96f0 ec3e
00000100: b138 4f40 9af6 0d3e e7cd bbbf a8ac 05bf
00000110: 7ddd 03c0 7edd e5bf dd04 973f 7939 bcbf
00000120: 82dd 3a3f 7570 d7be b39e a53e a181 7ebf
00000130: f1b4 82bf 6100 23c0 897b 8d41 2fe0 48c0
00000140: 1f75 8dc0 ef5b 56c0 dffb 38c0 06ed f73f
00000150: 107d 0ec0 16c8 2641 170b 3cc0 454f a2bf
00000160: 8b4d 55c0 c056 b43d 013b 0cbf 2e5e dabf
00000170: e8bc 5d41 cfc1 eebf a927 1ec0 1c09 94c0
00000180: 017b a0c0 b44c a8bf f1c8 6f40 1f90 acc1
00000190: 9d21 7b40 c0eb 6040 08fd 0f40 559d 9d3f
000001a0: cf40 fa3f 9fd5 d1bb 7dce 323f bdc3 6cbf
000001b0: fb17 143f b854 07be a19c 50bf 042a 3bbf
000001c0: 4e7c 0e40 ba6f 37c1 d5ee 2440 2f15 0e40
000001d0: f17b 4340 eea0 4f3f 12f4 92bd 6b29 863f
000001e0: 87ee 54c1 8fc1 d93f cd8a 6e40 0390 e83f
000001f0: 563d d53f 907f ca3e 1ad6 bc3f 3882 5dc1
00000200: 6e04 2640 009d 0440 734b 6940 980c 0540
00000210: c809 1fbf 37eb 0841 6c15 21c2 7d2b 0641
00000220: 0142 0341 4100 fc40 e8f3 e440 1f77 873f
00000230: 5b59 e03f e772 0cc1 01e6 b53f aa54 0540
00000240: 0917 d53f 94fb 4140 6021 11bf 3ee9 d2bc
00000250: d6a4 35c1 f68e 983f 9814 833f a599 1540
00000260: 58d9 533c a659 e3be 7390 0440 acf2 85c1
00000270: d52b 6940 a53a 5440 9be5 7b40 c3cf 0b40
00000280: a903 d8be c119 1a40 8eee 21c1 e49f 3140
00000290: cb34 3f40 3f0a 3640 644a f23f 15fb 08bf
000002a0: bf3d 7ebf c2df c4c0 2a94 233f e089 f73f
000002b0: 100d 9ebe c948 1540 7448 823f 20f0 dbc0
000002c0: 32b9 d741 6dec 6bc0 cd6e 8bc0 fff0 c0c0
000002d0: d837 d7c0 e1f1 d23f f337 b9bd 2356 b8c0
000002e0: 3775 d13f 100c 1c40 d0c9 ac3f 4e17 0c3f
000002f0: fb5c 56bf 96e0 e63f 979f 61c1 25ba f03f
00000300: 600d 2940 06eb 1b40 7798 fc3f 27bf f53f
00000310: b7ac 27c0 d954 5f41 aeda eebf f0a3 a0c0
00000320: c272 71c0 ede7 63c0 0ff9 c03f 5074 b03e
00000330: 207b ecc0 b62d 3340 5b29 3440 c6ea 0140
00000340: fe95 1040 997b 7e3f 003b d8c0 90e0 d241
00000350: 2f01 b5c0 5bf5 cfc0 c800 bdc0 dd71 d1c0
00000360: 11a2 ff3b d767 f9bf 73c1 6740 e3ce 27c0
00000370: 2444 d73e 1954 f1bf 7338 98bf 40f5 253e
00000380: a69a d33f 66c5 35c1 77d4 0440 e170 2a40
00000390: 0760 3040 90a3 7a3f 27e6 e7bf ac40 473f
000003a0: 10e4 b0c0 bc91 85bf 287b a23f 9db4 8d3f
000003b0: d8f4 013f 9121 5cbf 4c17 533e a617 903e
000003c0: ebd3 0e3f e42e cc3f 80ce 8f3e 52b2 1640
000003d0: 9801 5abe 552c 88c0 7c42 ba41 abb0 8ac0
000003e0: 55a9 83c0 7185 6bc0 c874 9abf 808a 18bd
000003f0: cee6 a23c 7d22 a73f 1e65 0f3d f053 ffbf
4.3404098 -24.684622 5.321809 4.11088 5.134407 6.0119343 -0.9345775 -5.0274105
24.33016 -6.1728334 -4.742135 -5.8591466 -2.9222353 -0.58099097 -1.0214539 2.7371356
-0.67761105 1.062863 -2.2142518 -0.9720183 -0.32028118 -1.0840204 7.268098 -1.2992625
0.03406565 -1.697916 -2.545205 -0.51216596 -0.98870397 4.291851 -1.4056243 0.07684771
-1.1209334 -2.2155173 -0.06775257 -2.2705293 6.716113 -1.5658928 -3.1488569 -2.4195106
-2.0955765 1.1178674 1.9931198 -13.569019 3.0478787 5.3367167 2.2905836 2.888697
-0.44933173 5.88872 -26.900314 4.61715 3.6491756 5.780838 2.730124 -1.1534591
0.49389493 -4.6860023 1.6227827 3.2588186 1.4096506 -1.334485 0.6026699 0.46277303
3.2378352 0.13863602 -1.4672211 -0.5221658 -2.0603936 -1.7958219 1.1798359 -1.4705039
0.72994244 -0.42077985 0.3234764 -0.9941655 -1.0211469 -2.5468981 17.68532 -3.138683
-4.420547 -3.3493612 -2.890373 1.9369209 -2.2263832 10.423849 -2.9381769 -1.2680441
-3.3328578 0.08805609 -0.5477753 -1.7059991 13.85862 -1.8652896 -2.4711707 -4.626112
-5.015015 -1.3148408 3.7466395 -21.570372 3.9239266 3.514389 2.2498188 1.2313639
1.9551028 -0.0064036394 0.69846326 -0.9248617 0.5784909 -0.13215911 -0.81488997 -0.73110986
2.226337 -11.464777 2.5770772 2.220043 3.0544398 0.81104934 -0.07175459 1.048139
-13.308234 1.7012194 3.7272217 1.8168949 1.6659343 0.39550447 1.4752839 -13.844292
2.5940204 2.0720825 3.64523 2.0788937 -0.621243 8.5574255 -40.27092 8.385617
8.203614 7.875031 7.1547737 1.0583228 1.7527269 -8.778052 1.4210817 2.0832925
1.6647655 3.03098 -0.5669155 -0.025745984 -11.352743 1.1918628 1.024066 2.3375027
0.012930237 -0.44404334 2.0713165 -16.743492 3.6433003 3.3160794 3.935889 2.1845558
-0.42190292 2.407822 -10.120741 2.775384 2.9875972 2.8443754 1.8928952 -0.5350812
-0.9931297 -6.152314 0.63897955 1.9338951 -0.3086934 2.3325675 1.0178361 -6.873062
26.965427 -3.6863053 -4.3572755 -6.0294185 -6.725567 1.6480066 -0.090438746 -5.7605147
1.6363896 2.4382362 1.3499088 0.5472306 -0.83735627 1.8037288 -14.101462 1.8806807
2.6414413 2.4362197 1.9734029 1.919896 -2.6199167 13.958215 -1.8660486 -5.020012
-3.7726293 -3.5610306 1.5076007 0.3446374 -7.39003 2.799665 2.8150241 2.0299544
2.2591548 0.99407345 -6.757202 26.35965 -5.6563945 -6.4987006 -5.9063454 -6.5451493
0.0078013022 -1.9484814 3.6211822 -2.6220024 0.42044175 -1.885379 -1.1892227 0.16206837
1.653157 -11.360693 2.0754678 2.6631396 2.755861 0.97905827 -1.8117112 0.77833056
-5.5278397 -1.04351 1.2693834 1.1070744 0.50764227 -0.8598872 0.20614356 0.28143042
0.5579211 1.595181 0.28087234 2.3546338 -0.2128967 -4.2554116 23.282463 -4.334066
-4.1144204 -3.6800196 -1.2066889 -0.03724146 0.019885447 1.30574 0.035008542 -1.9947491

b f4 [7]
00000000: 3923 2d41 7872 58c2 e5a7 4641 8361 8441
00000010: 75ce 2c41 d5fe c440 fb37 29c0
10.821099 -54.111786 12.41599 16.547613 10.800405 6.1561074 -2.6440418
